…
The sparsity of the dataset: 99.9254188544918%
Remain Fields: ['entity_id', 'user_id', 'item_id', 'rating', 'head_id', 'relation_id', 'tail_id']
The number of entities: 234235
The number of relations: 22
The number of triples: 522475
The number of items that have been linked to KG: 9660
Wed 30 Nov 2022 02:33:28 INFO  [Training]: train_batch_size = [4096] negative sampling: [{'uniform': 1}]
Wed 30 Nov 2022 02:33:28 INFO  [Evaluation]: eval_batch_size = [102400] eval_args: [{'split': {'RS': [0.8, 0.1, 0.1]}, 'group_by': 'user', 'order': 'RO', 'mode': 'full'}]
Wed 30 Nov 2022 02:33:47 INFO  KGAT(
  (projection_head): ModuleList(
    (0): Linear(in_features=128, out_features=512, bias=False)
    (1): BatchNorm1d(512, eps=1e-12, momentum=0.1, affine=True, track_running_stats=True)
    (2): Linear(in_features=512, out_features=128, bias=False)
    (3): BatchNorm1d(128, eps=1e-12, momentum=0.1, affine=True, track_running_stats=True)
  )
  (user_embedding): Embedding(58145, 64)
  (entity_embedding): Embedding(234235, 64)
  (relation_embedding): Embedding(22, 64)
  (trans_w): Embedding(22, 4096)
  (aggregator_layers): ModuleList(
    (0): Aggregator(
      (message_dropout): Dropout(p=0.1, inplace=False)
      (W1): Linear(in_features=64, out_features=64, bias=True)
      (W2): Linear(in_features=64, out_features=64, bias=True)
      (activation): LeakyReLU(negative_slope=0.01)
    )
  )
  (tanh): Tanh()
  (mf_loss): BPRLoss()
  (reg_loss): EmbLoss()
  (ce_loss): CrossEntropyLoss()
)
Trainable parameters: 18944512
Wed 30 Nov 2022 03:03:31 INFO  epoch 0 training [time: 1783.45s, train_loss1: 326.8420, train_loss2: 64.5829]
Wed 30 Nov 2022 03:04:30 INFO  epoch 0 evaluating [time: 59.02s, valid_score: 0.017000]
…
